maas/ext/maas/scripts/optimized/HumanEval/train/round_1/embedding_reduction_mlp.pth (torch, 528144 bytes, 4 tensors)

fc1.weight f4 [256, 384]
000000 d4 63 8f bc 80 77 c9 b9 96 fd 46 bd c0 cb e2 3b
       -0.017503656 -0.00038426742 -0.048581682 0.0069212615
000010 c0 d4 1e 3d 70 a5 99 bb 35 7b 2e bd 3c d4 2a 3d
       0.038777113 -0.004688911 -0.042597968 0.04170631
000020 60 9e d2 3b 6c c8 13 bc b8 f4 a7 3c b6 ca 9a bc
       0.006427571 -0.009019952 0.020502433 -0.018895488
000030 70 ee 26 bc e0 c7 8f 3a 08 25 c6 3c 4e 1b 36 bd
       -0.010188684 0.0010969602 0.02418758 -0.044459634
000040 af 9a ef bc b8 c9 37 bc 20 fe 87 bb 60 7c 1f bd
       -0.029248564 -0.011217527 -0.004150167 -0.038936973
000050 78 e5 fc 3c 7a f1 09 bd 70 ce 8a 3c 24 38 cd 3c
       0.030871138 -0.033677556 0.01694414 0.025051184
000060 95 17 10 bd 6c d8 c8 3c f8 5c 45 3d 08 65 44 3c
       -0.03517874 0.02451726 0.048184365 0.011986978
000070 7e 6d 1a bd c8 b0 19 3d b8 3f 86 3b 9e cb 32 3d
       -0.037702076 0.037522107 0.0040969513 0.043651216
000080 f0 85 77 3c 38 e1 91 3c ac f3 32 bd ed f1 c8 bc
       0.015107617 0.017807588 -0.043689415 -0.024529422
000090 90 e7 20 3b 60 16 d2 ba 68 67 af 3c 0c cf b8 3c
       0.0024552085 -0.0016028397 0.021411613 0.022559665
0000a0 10 9a 49 3d 41 7e a8 bc 04 88 0a 3c 44 3e d9 3c
       0.04921919 -0.020568015 0.00845528 0.026518948
0000b0 b8 05 42 3c 20 6c 2f bb 00 e5 ea 3c 06 55 1c 3d
       0.011842184 -0.0026767328 0.028673649 0.038167022
0000c0 c0 19 d2 ba a0 98 e2 3a 02 b4 fc bc d4 87 05 3d
       -0.0016029403 0.0017287917 -0.030847553 0.03260024
0000d0 34 a5 88 3c 90 84 1b 3d e0 f6 3f 3c 78 25 30 bd
       0.016680337 0.03796822 0.011716574 -0.043004483
0000e0 b1 36 c9 bc 50 da 56 3c 4a 99 4b bd 7e 83 02 3d
       -0.024562212 0.013113573 -0.049706735 0.031863682
0000f0 c0 e5 5b ba b0 20 ef 3c c2 35 25 bd 35 ba e6 bc
       -0.00083884224 0.029190391 -0.04033447 -0.028164962
000100 08 51 1a 3d 52 e8 d1 bc 70 e9 6a 3b 48 66 91 bc
       0.037674934 -0.025623474 0.0035844706 -0.017748967
000110 a0 f3 26 3d 69 e4 4b bd 18 21 c6 3c 50 61 1a bc
       0.040759683 -0.049778376 0.024185702 -0.009422615
000120 40 d1 97 ba a8 0d 02 3d d0 e8 32 bc 80 5f 94 bc
       -0.0011582747 0.031751305 -0.010919765 -0.018111944
000130 40 cc d8 3c 72 39 81 bc 54 63 b7 3c c3 52 44 bd
       0.026464581 -0.015774462 0.02238623 -0.04793049
000140 19 0c 4a bd a4 92 75 bc 08 bd 29 bc fa 7b 0a bd
       -0.049327943 -0.014988575 -0.01036001 -0.03380964
000150 24 71 82 bc 9a 06 06 bd c0 eb 97 bc c4 0a c8 3c
       -0.01592309 -0.03272114 -0.018545032 0.024419196
000160 64 f0 af 3c 20 de fb bb 0e 38 44 3d 60 06 03 3c
       0.021476932 -0.0076863915 0.04790502 0.007997125
000170 54 19 39 bc d4 15 8b 3c 84 1b 21 3d c8 d4 9d 3c
       -0.011297543 0.016978182 0.03933288 0.019266501
000180 be 65 2b 3d e0 b1 e3 ba f0 f8 14 3b dc 2f bf 3c
       0.041845076 -0.0017371736 0.0022731386 0.02333825
000190 48 90 bd 3c 80 83 c3 3a a4 d4 14 3d c8 a2 33 bd
       0.023140088 0.0014916509 0.036335602 -0.043856412
0001a0 f0 dc 08 3d 30 c7 6d 3c 40 a3 9d bb 88 aa f3 bc
       0.033413827 0.014512822 -0.0048107207 -0.029744402
0001b0 c7 f4 e6 bc 60 54 fd 3c a8 a9 c1 3c 76 e5 fb bc
       -0.02819289 0.030924022 0.023640469 -0.030749064
0001c0 00 62 47 b9 8a 36 26 bd 68 ee be 3b 8d 25 d9 bc
       -0.00019014627 -0.040579356 0.00582676 -0.026507163
0001d0 00 9e a6 3a 7c 3b 3f bd 10 85 ed 3b a0 c6 1d 3d
       0.0012711883 -0.046687588 0.0072485283 0.0385195
0001e0 cc ba 08 3c 0c 57 13 3d 80 68 3b 3b 6c b3 f0 3c
       0.008345317 0.035971686 0.0028596222 0.02938243
0001f0 d8 ec 42 3d 18 c8 e3 3b af 69 20 bd d8 bc 21 bd
       0.047589153 0.0069513433 -0.039163288 -0.039486736
000200 4c 8b bc 3c 54 96 02 bc f5 69 35 bd 84 25 24 3c
       0.02301564 -0.007970411 -0.0442905 0.01001871
000210 8a a5 44 bd 00 f7 10 3a 28 b2 a1 3c 10 73 62 bc
       -0.048009433 0.000552997 0.019738272 -0.013821378
000220 d6 49 b9 bc 64 5a 0b 3c ac 52 2f 3c 60 03 dd 3b
       -0.022618216 0.0085054375 0.010700863 0.006744787
000230 d6 c6 41 3d 5c 45 af bc 3c 9e 35 3d d0 9e 0c bd
       0.047308765 -0.021395378 0.044340357 -0.034331143
000240 23 c8 fd bc 16 8a 17 3d 7b 8f 2f bd 99 dc 45 bd
       -0.030979222 0.036996923 -0.042861443 -0.04830608
000250 f6 99 12 bd 10 a6 f0 3c f9 47 14 bd 0a 7f 8f bc
       -0.03579136 0.02937606 -0.03620145 -0.017516632
000260 0c e8 03 3c b1 c2 48 bd 68 75 05 3c 28 fa 2d 3d
       0.00805093 -0.049013797 0.008145668 0.042474896
000270 f0 64 5a bc b5 21 a9 bc 92 39 38 bd 28 0e 2e 3d
       -0.013329729 -0.020645956 -0.04497678 0.04249397
000280 44 02 8c 3c 15 58 d6 bc 10 d5 68 3c 11 7c 2c bd
       0.017090924 -0.026165048 0.014210954 -0.042110506
000290 54 1d 29 bc 10 3b 15 3b d4 18 2a bc 48 aa 18 bd
       -0.010321934 0.00227708 -0.010381896 -0.037271768
0002a0 06 b9 a5 bc 2c 7a 25 bd 24 1b 8d bc 98 3c 37 3d
       -0.020229828 -0.040399715 -0.017224856 0.04473552
0002b0 12 fa 16 3d 60 12 d0 3c 12 b6 41 3d 36 24 23 3d
       0.03685958 0.025399387 0.047292776 0.039829455
0002c0 4c 22 10 bd 4c 1d 0e 3c 12 7f 2e 3d e8 b0 32 3c
       -0.035188958 0.008673977 0.042601652 0.010906436
0002d0 48 ae 0d 3d da 28 b2 bc 25 21 27 bd 96 c7 2b 3d
       0.034590036 -0.021747995 -0.040803093 0.041938387
0002e0 30 92 54 3b 7c 83 33 3d e0 15 44 3d f0 c9 4f bb
       0.0032435767 0.043826565 0.047872424 -0.0031706057
0002f0 88 d8 c6 bc 28 84 d0 bb 30 5a c7 bb 50 8b 51 3b
       -0.024273172 -0.0063634105 -0.0060837492 0.0031973906
000300 1c 22 b8 3c 6a 00 2d bd 62 68 c0 bc 48 12 33 bc
       0.022477202 -0.042236723 -0.023487274 -0.010929652
000310 e0 63 13 3d 3a eb 13 3d 30 25 16 bc c0 50 4a 3b
       0.03598392 0.036113 -0.00916414 0.0030870885
000320 30 4f c3 3b 7a 5d 11 3d 68 ab e1 bb 20 6e aa ba
       0.0059603676 0.035489537 -0.0068868883 -0.001300279
000330 cc 0b 83 3c 63 dc 4c bd 9c 9f 0f bd c2 7e 22 3d
       0.015996836 -0.050014865 -0.035064325 0.039671667
000340 b3 cd d4 bc 7c 6f 18 bc e0 da ea 3a a8 e6 ec 3c
       -0.025976991 -0.009303924 0.0017918013 0.02891858
000350 2a 16 12 3d 52 d1 19 3d 0d 89 cf bc 50 d1 20 bb
       0.03566567 0.03755314 -0.025333906 -0.0024538822
000360 7f d5 24 bd 10 f0 3d bc e8 0e 3e 3d e9 8b c1 bc
       -0.04024267 -0.01159288 0.046400934 -0.023626285
000370 fc b2 8c bc 0a 83 fe bc 26 ea d4 bc 09 d4 fa bc
       -0.01717519 -0.031068344 -0.025990557 -0.030618684
000380 ea b5 95 bc 30 67 c6 bb b8 dc 19 3d a6 cc 12 3d
       -0.01827522 -0.0060547814 0.03756401 0.0358397
000390 9f 22 d7 bc 16 da 38 3d df 6e af bc 66 86 2b 3d
       -0.026261626 0.045129858 -0.021415172 0.04187622
0003a0 50 d9 f1 bb c8 9d 1e bc 22 13 45 bd 20 64 4e bb
       -0.007380642 -0.009681173 -0.04811395 -0.0031492785
0003b0 35 8e e5 bc 87 be 0c bd 72 b8 03 3d 85 ba 3f bd
       -0.028021911 -0.03436139 0.032158323 -0.04680874
0003c0 64 74 3a bd d0 ac 5c bb 2e a0 1d 3d 8b 73 1a bd
       -0.045521155 -0.003367234 0.038482837 -0.037707847
0003d0 55 3a b5 bc 9c 3d ed bc 19 20 34 bd e2 f2 40 3d
       -0.022122541 -0.028960042 -0.043975923 0.04710663
0003e0 5e 0c eb bc a8 17 6c 3c eb 8d b2 bc 98 d7 1f 3d
       -0.02869242 0.014409937 -0.021796187 0.039023966
0003f0 64 ba 02 3d d1 c5 24 bd ae 93 14 bd 92 c9 84 bc
       0.031916037 -0.040227715 -0.03627365 -0.016209397

fc1.bias f4 [256]
000000 8e 85 c2 bc 7d d9 0b bd 08 0b 7a 3c 27 b9 d2 bc
       -0.023745324 -0.03414296 0.015261419 -0.025723053
000010 52 43 c5 bc d8 52 98 bc 37 7d 27 bd 18 e2 57 3c
       -0.024079952 -0.01859419 -0.0408909 0.013176464
000020 db e4 b8 bc 30 47 00 3c 96 c0 3a 3d ce 9b 37 3d
       -0.022570064 0.007829472 0.04559382 0.04482632
000030 43 8a 27 bd c7 d8 bc bc 24 90 6b bc 00 50 2d ba
       -0.04090334 -0.023052586 -0.0143776275 -0.0006611347
000040 92 bd 20 3d f5 f8 e4 bc c0 72 2f 3a 2c da 2c 3d
       0.03924329 -0.027950743 0.00066928193 0.042200252
000050 56 73 0f 3d f9 bf a7 bc 74 ad 96 bc 1c ff 9c 3c
       0.035022102 -0.020477282 -0.018393256 0.019164614
000060 24 17 8a bc 35 39 1b bd bc 0b da 3c 5d 36 3c bd
       -0.016856737 -0.037896354 0.026616924 -0.045950282
000070 72 9f 3f 3d 90 03 be 3c 80 2e fc 3a 18 6e f3 3c
       0.04678292 0.023195058 0.0019239932 0.029715583
000080 be 0f 3d bd f0 60 37 bc 8a d6 33 bd f8 8e 74 3c
       -0.04615759 -0.011192545 -0.043905772 0.0149266645
000090 4c 20 d9 bc c4 2e 8b bc f0 1c 09 bc 24 47 07 3c
       -0.026504658 -0.016990073 -0.008368716 0.008256707
0000a0 88 4a 2f bc 3c 85 b9 bc 86 f9 dd bc 34 14 bf 3c
       -0.010698922 -0.022646539 -0.027096521 0.023325063
0000b0 0c 8c 9f 3c 04 00 ee 3c 88 0a e2 3b f0 7c b2 3b
       0.01947596 0.029052742 0.006898228 0.0054470226
0000c0 a8 8e 86 bc f8 6e 13 3d 80 34 84 bb 82 21 1a 3d
       -0.016425446 0.0359945 -0.004034579 0.03762961
0000d0 84 f2 b0 bc 04 2b ec 3c 38 f7 f8 bb c0 b2 ff bc
       -0.021600015 0.028829105 -0.00759783 -0.031213164
0000e0 1c 23 36 bd 79 85 3d bd 28 18 1e bd e0 6e 08 3b
       -0.044467077 -0.046269868 -0.038597256 0.002081804
0000f0 60 cb 30 bd 1e c2 f4 bc 70 99 4e 3d 20 8c 44 3d
       -0.043162704 -0.029877719 0.0504393 0.047985196
000100 74 21 d6 bc f8 72 24 3c d4 44 22 bc 30 00 3a bd
       -0.026138999 0.010037176 -0.009904105 -0.045410335
000110 7c e9 26 bc 10 7f 28 3c 11 93 36 bd 80 c4 33 3a
       -0.010187503 0.0102842 -0.044573847 0.0006857589
000120 24 70 1a bc 0c 62 c5 3c 40 ff 70 3a 7c 91 fe 3c
       -0.0094261505 0.024094604 0.00091933087 0.031075232
000130 93 11 4f bd ec e0 1b 3c 90 c9 29 3c 99 3d 50 bd
       -0.05055387 0.009514075 0.010362998 -0.050839994
000140 e8 d8 0c bd b8 f4 97 bc c4 66 16 3d 68 df 2c 3d
       -0.034386545 -0.018549308 0.0367191 0.042205244
000150 51 47 e9 bc 3a 5b 4a 3d 8c 24 39 3d 68 b4 8e 3c
       -0.02847639 0.049403407 0.04520087 0.017420009
000160 a6 dc 32 3d e9 51 44 bd 04 1a 27 3c 20 01 b2 3a
       0.043667458 -0.047929678 0.010199074 0.0013580658
000170 18 3c 50 bd dc da 1d bc 20 51 1e bd 04 e1 d4 bc
       -0.05083856 -0.0096347 -0.038651586 -0.025986202
000180 69 4a ab bc f9 64 4b bd 3d aa 20 bd 10 39 06 3c
       -0.020909505 -0.049656842 -0.039224852 0.008192316
000190 d8 6d c7 3c 00 e0 99 36 7e 0d 08 bd 3c 64 30 3d
       0.02434437 4.5858324e-06 -0.033215992 0.04306434
0001a0 30 1a 6b 3b cf f6 50 bd 61 ca 4f bd 2c 01 ca bc
       0.0035873763 -0.051016625 -0.050730113 -0.024658762
0001b0 c0 99 12 3c 94 79 24 3c 08 36 b9 3c 20 18 bc 3c
       0.00894779 0.010038752 0.022608772 0.022960722
0001c0 2a c3 4a 3d c7 61 ff bc 24 5f 0d 3d 82 19 be bc
       0.04950253 -0.031174554 0.03451456 -0.023205522
0001d0 56 d9 cf bc a4 e1 32 3d 34 73 c6 3c e8 e6 16 3d
       -0.025372189 0.04367222 0.024224855 0.036841303
0001e0 5c 67 aa bc 24 a8 26 bd cc f0 07 3c 8c ab c8 3c
       -0.020801239 -0.040687695 0.008297157 0.024495862
0001f0 60 95 4f bd fb da a6 bc 18 08 8c bb 78 1e c9 3c
       -0.050679564 -0.02036809 -0.004273426 0.024550661
000200 ae 68 a3 bc 56 57 9d bc e0 32 d5 3c fc 22 07 bc
       -0.019947376 -0.019206684 0.026025236 -0.008248087
000210 dc 56 14 3d 1b bb 42 bd 20 02 36 3c 45 a6 a9 bc
       0.036215648 -0.04754172 0.011108905 -0.020709166
000220 e0 27 fd bb ca aa b1 bc a4 54 20 3d d4 83 40 3d
       -0.0077257007 -0.021687884 0.03914322 0.04700072
000230 db 03 e3 bc 74 c8 4a bc 70 5b 78 3b 1c f9 b8 3c
       -0.0277118 -0.012376893 0.0037896298 0.022579722
000240 00 0c 5f ba 72 9f 3f 3d a8 41 e4 3b fb 2a 37 bd
       -0.0008508563 0.04678292 0.0069658346 -0.044718724
000250 7c 3d 44 bd 98 b0 b1 3b 40 4b 66 bb f0 42 1e 3c
       -0.0479102 0.005422663 -0.0035140067 0.009659514
000260 10 e0 35 3c c0 14 a1 3b 6c 83 2e bc bc df 06 bd
       0.011100784 0.0049158037 -0.010651451 -0.032928213
000270 7c 8e 4e 3d aa 22 41 3d 50 0b 33 bc 4e ce f6 bc
       0.050428852 0.0471522 -0.01092799 -0.03012767
000280 8a 7b 9e bc c5 31 4a bd 16 6b 12 3d f6 65 15 3d
       -0.019346017 -0.04936387 0.035746656 0.03647419
000290 86 5c 42 3d 9e 1e fb bc e8 cd 89 bb 6a 4c 08 bd
       0.04745152 -0.030654248 -0.004205454 -0.033276
0002a0 dc 60 12 3d c3 7c 13 bd 20 66 c9 3c 14 87 f0 3c
       0.035736904 -0.036007654 0.02458483 0.029361285
0002b0 7d ff 2b bd c0 47 96 3b c6 72 87 bc 3a ba 80 bc
       -0.0419917 0.00458619 -0.01653422 -0.0157138
0002c0 18 9e 90 3b e0 f1 0c 3c 80 5b 09 3d 94 03 eb bc
       0.0044133775 0.008602589 0.033534527 -0.02868823
0002d0 14 c1 34 bc 50 1a cd 3c ec 2f 25 3d 00 40 b2 36
       -0.011032362 0.02503696 0.040328905 5.312264e-06
0002e0 70 1f 2d 3b 6a c4 39 3d 8c 06 97 3c a4 c0 0a 3d
       0.0026416443 0.04535333 0.018435739 0.033875123
0002f0 a5 63 46 bd a0 e8 88 3b 04 c3 7f bc 88 c9 13 bd
       -0.048434872 0.0041781217 -0.01561046 -0.036080867
000300 c4 2e e3 3c 08 45 7c 3c 20 55 d0 3a 78 69 42 3d
       0.02773226 0.015397318 0.001589451 0.047463864
000310 08 39 b8 3c 00 c4 39 3d e8 10 8c 3b 50 4e 57 3c
       0.022488132 0.045352936 0.0042744763 0.01314123
000320 14 41 28 bd 76 5e 19 3d e0 9d 64 3c 80 cd a6 3a
       -0.04107769 0.0374436 0.013953656 0.0012726039
000330 e0 ce dc ba d2 b7 a6 bc 48 39 e1 3c 34 8d c9 3c
       -0.0016846322 -0.020351324 0.027493134 0.024603464
000340 e8 54 91 3c f0 aa 0a 3d 32 f7 00 bd 94 d5 bf bc
       0.017740682 0.033854425 -0.031485744 -0.023417272
000350 0c 0e e4 3c f0 76 dd 3b 94 b1 b3 3c 2c 9d 6f bc
       0.02783873 0.006758563 0.021935262 -0.014624875
000360 14 03 01 bd 80 05 d9 39 80 e1 02 3d 54 7e 1b 3d
       -0.031497076 0.00041393563 0.031953335 0.037962273
000370 a0 a9 35 bc 26 bb 4d 3d 24 e2 2d bc b8 f0 e1 3b
       -0.011087805 0.050227307 -0.010612998 0.006895151
000380 f0 7e 47 bb 90 07 2a 3c 39 3a 01 bd 8a 41 2d bd
       -0.003044065 0.01037778 -0.031549666 -0.04229883
000390 08 a8 bc bc 30 f7 2d bd 2e 22 16 bd 30 c5 f7 bb
       -0.023029342 -0.042472064 -0.03665369 -0.0075613484
0003a0 22 bc 4a 3d 40 2d 06 3a 80 90 b8 bb 00 8e 8c 3b
       0.049495824 0.0005118437 -0.00563246 0.0042893887
0003b0 50 6a 58 bc 30 f7 59 3c ec 54 b2 3c 8c c5 1b 3c
       -0.013208941 0.013303563 0.02176901 0.009507548
0003c0 bd 57 1a bd f4 d6 c7 3c 40 9d 18 bd 20 9b 72 bc
       -0.03768133 0.02439449 -0.03725934 -0.0148074925
0003d0 a0 c5 c1 bb c8 2e ee 3c d4 84 09 bd ba 04 99 bc
       -0.0059134513 0.029075041 -0.03357394 -0.018679012
0003e0 da 2e 95 bc 60 e0 ee bb b8 36 cb 3c f8 0d ab 3c
       -0.018210817 -0.007289931 0.024806365 0.020880684
0003f0 20 31 ad 3c a4 b3 7d bc a7 00 41 bd f3 68 15 bd
       0.021141589 -0.015484724 -0.047119763 -0.03647704

fc2.weight f4 [128, 256]
000000 84 49 87 bc a0 61 2f 3c d4 63 16 3d 4c 57 f9 3c
       -0.016514547 0.010704428 0.036716297 0.030437134
000010 f6 d6 6f 3d d0 eb 6b 3c a8 71 3f 3d e0 e2 32 bc
       0.058554612 0.014399484 0.04673925 -0.010918349
000020 28 bf 1d bc d0 04 ca bc 98 58 b8 3c 00 3c fe 38
       -0.009628095 -0.024660498 0.022503182 0.0001212284
000030 da a1 24 3d 40 b5 a0 3b 56 1e 6a 3d ee c3 06 3d
       0.040193416 0.004904419 0.057157837 0.032901697
000040 10 45 51 bc fc 58 03 bd b4 bd 39 bd b4 19 06 bd
       -0.012772813 -0.032067284 -0.04534693 -0.032739356
000050 fa ed 27 3d b8 db e0 3c e8 60 63 3d 92 fa 14 3d
       0.040998437 0.02744852 0.05551234 0.036371775
000060 00 41 f6 b9 30 d0 a4 3c 68 db 41 3c 92 34 37 bd
       -0.00046969205 0.020118803 0.011832096 -0.04472787
000070 94 17 e3 3c b8 ee d2 bc e8 9c c3 3c 40 88 07 bd
       0.027721204 -0.025748596 0.02387853 -0.033088923
000080 56 de 23 3d 02 4f 31 3d 88 9d 60 3d ec 45 ad bc
       0.040006958 0.04328824 0.054837734 -0.021151505
000090 8c 9a b9 3c 24 90 41 bd 08 e6 d1 bc 7c 9a 58 3d
       0.022656702 -0.047256604 -0.025622383 0.052881703
0000a0 32 f9 52 bd fc 2e c9 3c 7c 45 a7 bc 1a e0 08 3d
       -0.051507182 0.024558537 -0.020418875 0.033416845
0000b0 48 c6 c7 3c 40 2b 49 3c 42 5a 12 bd 20 ab 87 3c
       0.02438654 0.012278378 -0.035730608 0.016561091
0000c0 a8 28 70 3d 90 99 fb bb 6c 25 92 bc e0 41 e7 bb
       0.058632523 -0.007678218 -0.01784011 -0.0070574135
0000d0 a8 f1 2b bd d6 e8 7c 3d b0 9d 09 3c f0 10 95 bc
       -0.04197851 0.061745487 0.008399412 -0.018196553
0000e0 24 96 08 3d d0 75 20 3d 6c c4 fe 3c 90 64 5f 3c
       0.03334631 0.039174855 0.03109952 0.013634816
0000f0 de 87 03 bd e0 c7 00 3d 24 24 9e 3c 2a 96 0d 3d
       -0.032111995 0.031440616 0.019304343 0.034567036
000100 62 4d 42 bd 1e a0 70 bd 12 4d 48 3d b4 42 28 bd
       -0.04743708 -0.05874645 0.048901625 -0.041079238
000110 00 4b 48 bc 80 17 62 3b 20 e5 47 bd fa cc 2a bd
       -0.012224913 0.003449887 -0.048802495 -0.041699387
000120 30 eb c0 3c 90 9d 71 3d d4 b6 d5 3c 30 73 16 3c
       0.023549646 0.058988154 0.026088156 0.009182736
000130 74 78 68 3d 00 5b a9 b9 a8 fa 68 bc 44 d8 a7 3c
       0.056755498 -0.00032301992 -0.014219917 0.020488866
000140 0e 00 14 bd a4 f1 b6 3c 96 74 3c 3d a0 e8 4c 3d
       -0.036132865 0.02233202 0.046009623 0.050026536
000150 d0 e9 d8 3b a4 bf 6e bd fc 67 49 bd 8e 4c 3d 3d
       0.0066196695 -0.05828823 -0.049171433 0.046215586
000160 dc 08 ef 3c 12 01 00 bd 6a 22 0b 3d fc 21 96 bc
       0.02917903 -0.03125102 0.033968367 -0.018326752
000170 30 80 94 bb 08 d0 62 bd ac e7 90 bc ac 22 ea 3c
       -0.0045318827 -0.055374175 -0.017688595 0.028580986
000180 6e 49 39 3d 12 7c 74 bd 50 4e 34 3d 96 80 12 bd
       0.045236044 -0.059688635 0.044019997 -0.03576716
000190 da b4 51 bd 14 5a d9 bc 40 11 26 3d 68 cd 31 bc
       -0.051197864 -0.02653221 0.040543795 -0.010852195
0001a0 16 a9 27 bd 40 65 2d bc 40 bb d4 3a 40 2a 45 bb
       -0.040932737 -0.010583222 0.0016230121 -0.0030084997
0001b0 8a 5d 72 3d a2 f2 0b 3d 22 e7 0b 3d 50 52 07 bd
       0.059171237 0.03416694 0.034155972 -0.033037484
0001c0 00 3d b4 3c 40 d6 12 3c d0 3b 23 bd 1c 52 da 3c
       0.022001743 0.008962214 -0.039851964 0.02665048
0001d0 68 4d 47 bd 84 87 6b 3d ae 28 3f bd 22 32 1a 3d
       -0.048657805 0.057502285 -0.046669655 0.037645467
0001e0 70 b8 ad 3b 8e ec 37 3d 88 60 fd bc 04 4c b7 bc
       0.0053015277 0.04490333 -0.030929819 -0.022375114
0001f0 20 44 0a 3c 1a 0b 6a bd 64 27 2f 3d 10 52 1c bc
       0.008439094 -0.057139494 0.042762175 -0.00954105
000200 b8 99 18 bc fc 07 0c 3d b6 85 73 bd 38 8e 9a 3c
       -0.009313993 0.034187302 -0.05945369 0.018866643
000210 48 ca 95 bc 8c 15 15 3d 80 56 06 bc 0c ff d0 bc
       -0.018284932 0.0363975 -0.008199334 -0.02551224
000220 4a 85 5a bd ae d9 46 3d 78 c4 3e bc f8 f5 a1 3c
       -0.05334977 0.04854744 -0.0116435215 0.019770607
000230 08 d9 57 3d da ca 4c bd dc f6 46 3d 14 32 de bc
       0.05269721 -0.04999814 0.048575267 -0.027123488
000240 ae ab 02 bd c0 e3 ba 3a 58 6e 74 bc 10 89 57 bc
       -0.031902008 0.0014258549 -0.014918886 -0.013155237
000250 b6 95 41 bd 00 05 d7 bc 78 d4 1b bc a8 cb 0f bd
       -0.047261916 -0.026247501 -0.009511106 -0.03510633
000260 16 1f 50 bd 48 41 ae 3c aa 81 33 3d 74 e3 e7 3c
       -0.050810896 0.021271363 0.04382483 0.0283067
000270 7c b6 2e bd 5c e0 94 bc fa 65 76 bd 4a d8 1d 3d
       -0.0426545 -0.01817339 -0.060155846 0.038536347
000280 4c e1 8a bc 80 ce 30 ba ac ca e5 3c 68 90 42 bc
       -0.016953133 -0.0006744638 0.028050743 -0.011875249
000290 92 b0 7a 3d 04 1b 82 bc 42 af 60 3d 76 50 7c 3d
       0.061203547 -0.015882023 0.05485464 0.06160017
0002a0 2e 44 6e bd 40 a5 c8 3a 06 03 7e 3d 66 ad 56 bd
       -0.05817049 0.0015308037 0.062014602 -0.05241146
0002b0 24 29 9c 3c 0a 4a 7f bd 94 3f 4b 3d dc 6a d9 3c
       0.019062586 -0.06232647 0.04962118 0.026540212
0002c0 02 1c 5e 3d 8c 34 ca bc 90 be fc bc 98 78 0e 3c
       0.05422593 -0.02468326 -0.030852586 0.008695744
0002d0 e0 e3 06 3c 00 c3 99 3b 70 9c b6 bb b0 e4 8f 3c
       0.008233041 0.0046924353 -0.005572848 0.017565101
0002e0 ec cb 76 3d d2 9d 00 bd ee 3b 00 bd 50 c4 04 bd
       0.06025307 -0.03140051 -0.031307153 -0.03241378
0002f0 50 1b 8a bc 9a 71 59 bd 44 f3 60 bd b0 c1 76 3c
       -0.016858727 -0.053086855 -0.054919496 0.015060827
000300 54 bc 46 3d b0 cb 51 3d 7e 23 6f bd a0 ca 18 bd
       0.048519447 0.051219642 -0.058383457 -0.037302613
000310 48 85 ea 3c 96 a8 08 3d 5c ab 17 3d aa ec 02 bd
       0.028628007 0.0333639 0.037028655 -0.03196398
000320 0c b1 f7 bc 8a 17 74 3d 60 1c 36 bd 9a 19 22 bd
       -0.03023579 0.05959276 -0.044460654 -0.039575197
000330 78 26 8b 3c 72 ad 5f bd 98 1d a5 bc 50 e2 d1 3c
       0.016986117 -0.05460877 -0.020155713 0.02562061
000340 02 fa 7e bd a0 6a d9 bc 30 fa fe bc e0 83 65 bc
       -0.062250145 -0.0265401 -0.031125158 -0.014008492
000350 96 c7 6b bd c0 00 37 bb 84 3a f3 bc 1c 95 d2 3c
       -0.057563387 -0.002792403 -0.029690988 0.025705867
000360 dc 12 8e 3c 32 d0 61 bd a0 90 1d 3c c0 50 74 bd
       0.017342977 -0.05513019 0.009617001 -0.05964732
000370 46 0e 28 3d a0 fc 03 bc 7c 72 d5 bc 60 80 d6 3b
       0.041029237 -0.008055836 -0.026055567 0.006546065
000380 d8 6c f1 3c 3c a5 1a 3d 80 02 ef bb 98 fe b0 3c
       0.029470846 0.037755236 -0.007293999 0.021605775
000390 38 b4 a9 bc ac 47 90 3c 40 db 5e bb f4 4a c8 3c
       -0.020715818 0.0176123 -0.0034005195 0.024449803
0003a0 10 48 d4 3c 2a d5 28 3d a0 83 c7 bc 76 a6 55 bd
       0.025913268 0.041218914 -0.024354756 -0.052160703
0003b0 90 bf 18 3c d8 b5 97 bc 78 c8 49 3c 68 85 02 bd
       0.009323016 -0.018519327 0.012315862 -0.031865507
0003c0 40 ee c5 bb e0 a2 d4 3b 40 06 a1 3a a8 fa d6 3c
       -0.0060403645 0.006489143 0.0012285188 0.02624257
0003d0 a2 22 2a 3d d2 58 7b 3d 50 0e 46 bc 08 4a 31 bd
       0.041536935 0.061364003 -0.012088373 -0.043283492
0003e0 ec 22 16 3d 20 e3 37 bb 12 7d 18 bd 62 0a 6c 3d
       0.036654398 -0.002805896 -0.03722865 0.05762709
0003f0 b0 86 de bc 5e 27 57 bd 4e e8 30 3d 0e ec 75 3d
       -0.027163833 -0.052527778 0.043190293 0.060039572

fc2.bias f4 [128]
000000 b4 7f eb bc f4 6e d1 3c 74 ad ef 3c 84 b4 97 3c
       -0.028747417 0.025565602 0.029257514 0.018518694
000010 7c d0 83 bc 62 4b 51 bd e0 06 4a 3d 40 50 2d bb
       -0.016090624 -0.05109728 0.049322963 -0.0026445538
000020 30 42 db bc a8 f1 da bc 5c dd 8b 3c 94 d1 f2 bc
       -0.02676496 -0.026726559 0.017073326 -0.02964095
000030 ac fb 14 3d 74 ad e1 bc b8 5a 12 bc 34 74 4c bd
       0.036372826 -0.02754853 -0.008932762 -0.049915507
000040 c8 03 6c bd ba b9 1f bd f8 61 e2 bc 90 18 f3 3c
       -0.057620794 -0.038995482 -0.027634606 0.029674798
000050 20 e6 51 3c d0 d5 4a bd 98 f8 6a bd f2 9a 6d 3d
       0.012811214 -0.049520314 -0.057365984 0.058009095
000060 d4 59 9f bc 3e 6e 5b bd b8 7a 73 3d 24 1c 5d 3d
       -0.019452013 -0.053571932 0.059443206 0.053981915
000070 bc 33 02 3d 60 b0 2b 3d 54 03 b8 3c f4 8a a7 3c
       0.03178762 0.04191625 0.022462524 0.020452
000080 08 87 9e 3c e0 a7 a2 bb 50 ac 82 bc 70 f4 2f 3d
       0.019351497 -0.00496386 -0.015951306 0.042957723
000090 a8 8f ca 3c 90 bb fe 3b a8 32 8a 3c 92 e4 56 bd
       0.024726704 0.007773824 0.016869858 -0.052464075
0000a0 88 68 e2 bc ba 77 43 bd 18 f8 b8 3c 26 bb 1e 3d
       -0.027637735 -0.047721602 0.022579238 0.038752697
0000b0 80 fc c6 bc 48 f0 29 3c 88 be 60 bd 6c 99 4e bd
       -0.024290323 0.010372229 -0.054869205 -0.050439283
0000c0 b0 33 d0 bb 9c 33 cb 3c a0 82 e4 bb 0c 97 e1 bc
       -0.006353818 0.024804883 -0.0069735795 -0.027537845
0000d0 ea 5d 72 3d 8e 02 67 3d 94 d7 ff bc ae 79 20 3d
       0.059171595 0.05639892 -0.031230725 0.039178543
0000e0 b6 83 6b bd d8 8b 9d 3c 08 e7 e6 bc f0 c1 48 3d
       -0.057498656 0.019231722 -0.028186336 0.04901308
0000f0 9e e9 08 bd 20 29 9c bc a8 ac 3a 3d b0 36 c1 3c
       -0.03342592 -0.019062579 0.045574814 0.023585647
000100 78 20 ad bc 34 c4 06 bd 00 93 8c ba 88 b5 4a bc
       -0.021133646 -0.032901958 -0.0010724962 -0.012372382
000110 ca 3d 40 3d a0 66 7c 3b b4 db 1a 3d 78 e6 57 3c
       0.046933927 0.0038513318 0.03780718 0.013177507
000120 50 e2 8a 3b 4c 4d 62 3d 5e 81 04 3d 88 4f 39 3c
       0.0042384043 0.055249497 0.032349937 0.011310466
000130 3e b7 47 bd 7e 6b 17 3d 1e 20 71 3d 1e 19 7f 3d
       -0.048758738 0.036967747 0.05886852 0.062279813
000140 da 30 45 3d d0 ba fd 3c cc 2e bd 3c 9c 57 d0 bc
       0.04814229 0.030972868 0.023093604 -0.0254324
000150 bc 3b 67 bd e0 d3 75 3d 08 c5 37 3c 8c 55 4b bd
       -0.05645345 0.060016513 0.0112164095 -0.04964213
000160 14 a5 d6 3c 7c 57 d5 3c 96 b2 1e bd 80 a3 2a bb
       0.026201762 0.026042692 -0.03874453 -0.0026037395
000170 30 3c f7 3c f4 fb 5e 3d 40 1b 34 3c 50 5b ee bc
       0.030180067 0.0544395 0.010992825 -0.029096276
000180 14 f1 fd 3c a8 54 0d bd 40 87 87 3b 06 36 7e bd
       0.030998744 -0.034504563 0.004135996 -0.06206324
000190 98 a7 d7 3c 6a a1 7f 3d 5c 06 33 bd a8 6b 18 3c
       0.026325032 0.062409796 -0.043707237 0.009303011
0001a0 9e 4e 06 bd 00 89 14 bd ec af b2 bc e0 01 a2 bc
       -0.03278982 -0.036263466 -0.021812402 -0.019776285
0001b0 16 15 50 3d 62 73 28 3d b8 a5 39 3c 90 19 6d bc
       0.05080136 0.041125663 0.011331014 -0.014471427
0001c0 6a fd 0a bd 28 0f f7 3c 3c 76 48 bd d8 65 23 bd
       -0.03393308 0.030158594 -0.048940882 -0.039892048
0001d0 b4 ae 66 3d c0 63 96 bc 84 e5 31 3d 04 5c 7d bd
       0.056318954 -0.018358111 0.043431774 -0.06185533
0001e0 e4 71 ad 3c f2 d7 55 3d 10 5d fc bc 28 2f 95 bc
       0.021172471 0.052207895 -0.030806094 -0.018210962
0001f0 ec 1b c6 bc 1c e0 a8 3c 1c 57 ee bc b0 65 46 3c
       -0.024183236 0.020614676 -0.029094271 0.012109205
